FullWorkingDataPipeline/backup pesi/W_9.npy (npy, 23456 bytes, 1 tensors)

array f4 [18, 18, 18]
0	0xbf89a0c4	-1.0752187
1	0x3f80ba6a	1.0056889
2	0x3e935ad3	0.2878023
3	0xbfc07145	-1.5034567
4	0xbf138fbd	-0.576412
5	0x3fd394e5	1.6529814
6	0xc01b02c6	-2.4220443
7	0xbedacdda	-0.42735177
8	0x3fa278db	1.2693132
9	0xbf5cf0eb	-0.8630511
10	0xbf2ca916	-0.67445505
11	0xbdb6bd6e	-0.089228496
12	0x3fbf7d7c	1.496017
13	0xbf21f8e1	-0.63270384
14	0xbedf8d85	-0.43662658
15	0xbeda94c6	-0.4269163
16	0x400da33f	2.2130888
17	0x400c7c83	2.1950996
18	0x3f8180a1	1.011738
19	0x3ec821a9	0.3908818
20	0x3f3c5cc6	0.7357906
21	0x3fbe1b7a	1.4852135
22	0xbf70eb1c	-0.9410875
23	0x3f963fb7	1.1738194
24	0xbfa0bd9a	-1.2557862
25	0xbf228f9a	-0.6350037
26	0x3f67d3f6	0.905578
27	0xbfb6dd12	-1.4286215
28	0xbe1005c0	-0.14064693
29	0xbf5c7a3f	-0.8612403
30	0xbe81f4e9	-0.25382164
31	0xc032d50a	-2.7942529
32	0xbfe1fe66	-1.7655761
33	0xbf317d4f	-0.6933183
34	0x3f6f1f79	0.934074
35	0xbe2ac47c	-0.16676515
36	0x3bf9e270	0.0076258704
37	0x3f305a63	0.6888792
38	0xbf62f33d	-0.886524
39	0x3e891230	0.26771688
40	0xbf531ad6	-0.82462823
41	0xbfde5518	-1.7369719
42	0xbec7dd9d	-0.39036265
43	0x3f1319cb	0.5746123
44	0x3ea9df76	0.331783
45	0xbce220d9	-0.027603554
46	0x40183dd5	2.378774
47	0x3ed0597e	0.40693277
48	0x3f7a43d7	0.97759765
49	0x400f5c50	2.2400093
50	0xbfa51c8c	-1.2899337
51	0xbf844e64	-1.0336423
52	0x3fdfca55	1.7483622
53	0xbf4af056	-0.79272974
54	0x3d05de7e	0.03268289
55	0x3f88bb15	1.0682093
56	0x3f610e35	0.87912303
57	0x3fdd6452	1.729624
58	0x3fba8924	1.4573102
59	0x3f854743	1.0412372
60	0xbf45c7e9	-0.77258164
61	0x3f4b040b	0.79303044
62	0x3e94c74d	0.29058304
63	0xbfad972c	-1.3561759
64	0x3fb14133	1.3848022
65	0x3f492958	0.7857871
66	0x3d1a9b0e	0.037745528
67	0xbe6ec467	-0.23317109
68	0xbf9907e3	-1.1955532
69	0x3e4fb31e	0.20283172
70	0x3ef19bf5	0.47189298
71	0xbf53cedd	-0.82737523
72	0x3f951af2	1.1648848
73	0xbf8ca5b2	-1.0988066
74	0xc008bb12	-2.1364179
75	0x3f7f9bb0	0.99846935
76	0xbee52be1	-0.4476004
77	0xbe285018	-0.16436803
78	0xbf581683	-0.8440935
79	0xbfcd0d0d	-1.6019608
80	0x3f9a831b	1.207126
81	0xbf4210e5	-0.7580703
82	0x3fcc101d	1.5942417
83	0x3f4504df	0.7696056
84	0xbeaa32de	-0.33241934
85	0xbf8bdfd4	-1.0927682
86	0xbf3ba033	-0.7329132
87	0xbf9af8f1	-1.2107221
88	0x4005b81e	2.0893626
89	0x3e2ab7ed	0.16671725
90	0x3f937796	1.152087
91	0xbfa28dc6	-1.2699516
92	0x3e282e9b	0.16424029
93	0x3f9119f1	1.1336042
94	0xbecd6e91	-0.40123418
95	0x3f74317d	0.95388013
96	0xbf8e9db0	-1.1141872
97	0xbfb1068c	-1.3830123
98	0x3e989038	0.2979753
99	0xbef739a0	-0.48286152
100	0x3f0bc53e	0.5459784
101	0xc0023020	-2.0341873
102	0x3f2f0716	0.6837019
103	0x402590dc	2.5869665
104	0xbcd76705	-0.02629424
105	0x3d0f2fee	0.03495782
106	0x3e38ca49	0.18045916
107	0xbfee26af	-1.8605555
108	0x3edae726	0.42754477
109	0xbfcdcefb	-1.607879
110	0xbee3160f	-0.44352767
111	0x3f98a77f	1.1926116
112	0xbf52007b	-0.82031983
113	0x3ececfef	0.40393016
114	0x3f6c3131	0.9226256
115	0x3e469ae2	0.1939502
116	0xbfbb7dcb	-1.4647764
117	0xbef09481	-0.469883
118	0x3fe969df	1.8235434
119	0xc005f739	-2.0932143
120	0xbe9f9bd4	-0.31173575
121	0xbf10dd12	-0.56587327
122	0x3def1870	0.11674583
123	0x3f3f8ec1	0.748272
124	0x3fcde238	1.6084661
125	0xbe89f685	-0.26945892
126	0x3f50653a	0.8140446
127	0x3eff114b	0.4981788
128	0x3eeaebf1	0.45883134
129	0xbf1cc7e9	-0.6124254
130	0xbf8b627e	-1.0889432
131	0xbf9afcec	-1.2108436
132	0xbf58faf1	-0.84757906
133	0x3e6cfa06	0.23142251
134	0x3f222bec	0.6334827
135	0x3e3262ec	0.17420548
136	0xbf2d56e2	-0.677107
137	0x3fdb74f6	1.7145069
138	0x3fbc9d57	1.4735516
139	0xbebdd4ed	-0.37076512
140	0xbf54044d	-0.8281906
141	0x3e0507cb	0.12991254
142	0x3fa22166	1.2666442
143	0x3eaa59c1	0.33271602
144	0x3f0edc27	0.55804676
145	0xbe59b882	-0.2126179
146	0x3ee38331	0.4443603
147	0x3fc0217e	1.5010221
148	0xbea7818c	-0.32716024
149	0x3ce62c1c	0.028097205
150	0x3e167a19	0.14695014
151	0x3e4044de	0.18776271
152	0xbfbf3904	-1.4939275
153	0xbffee6fb	-1.991424
154	0xbf91ef04	-1.1401067
155	0x3daed2a5	0.08536271
156	0x3f02b955	0.51064044
157	0xbf0c4981	-0.5479966
158	0x3fafcd7e	1.3734586
159	0xbe131590	-0.14363694
160	0x3ca4f073	0.020134186
161	0xbe46a567	-0.19399033
162	0x3e0aa6eb	0.13540237
163	0x3f33fd8b	0.7030875
164	0x3f27a772	0.65489876
165	0xbf6dce2b	-0.9289271
166	0x3fb89f36	1.4423587
167	0xbf995666	-1.1979492
168	0xbd11c916	-0.03559216
169	0xbebb0f8b	-0.36535296
170	0xbf937d5e	-1.1522634
171	0xbe4c8e8d	-0.19976254
172	0xbf59a93c	-0.85023856
173	0x3ba96db9	0.0051705507
174	0x3ebbd449	0.36685398
175	0x3fba653b	1.4562143
176	0x3e9b2c35	0.30307165
177	0xbf1c86cf	-0.611432
178	0xbec83186	-0.39100283
179	0x3e0fa586	0.14027986
180	0x3dc316ca	0.09525831
181	0x3fbac77d	1.4592129
182	0x3fb1bb2c	1.3885245
183	0xbec31e37	-0.3810899
184	0xbf1995a3	-0.5999395
185	0xc028887d	-2.6333306
186	0xbf22c3f1	-0.6358023
187	0xbf889c88	-1.067277
188	0xbeea0c5e	-0.4571256
189	0x3e8812bb	0.2657679
190	0x3dab95c3	0.08378174
191	0xbda9678a	-0.08271702
192	0x3e2f8e62	0.17144158
193	0xbe0d2fb5	-0.1378773
194	0x3e4713fd	0.19441219
195	0xc04ebeac	-3.2303877
196	0xbe8963ce	-0.26833957
197	0xbde06026	-0.10955839
198	0xbeadb1a2	-0.33924586
199	0xbe5ec138	-0.21753395
200	0x3f3362fe	0.70072925
201	0xbf1bb698	-0.6082549
202	0x400a9d65	2.1658566
203	0x3f1f4c8a	0.62226164
204	0xbda31b83	-0.07964232
205	0xbe914837	-0.28375408
206	0xbe33aad1	-0.1754563
207	0xbf80977a	-1.0046227
208	0xbe2382d0	-0.1596787
209	0x3e7631a3	0.24042372
210	0x3f0fbd2b	0.5614802
211	0x3f12434c	0.57133937
212	0xbe8dc62d	-0.2769026
213	0xbfb54184	-1.4160619
214	0xbf2b2231	-0.66849047
215	0x3fce6c31	1.6126767
216	0x3f65ae8b	0.89719456
217	0x3ebddced	0.37082615
218	0xbf42f977	-0.76161903
219	0xbaaa87c9	-0.0013010438
220	0xbfa296b9	-1.2702247
221	0xbf14ef5a	-0.5817772
222	0xbe916315	-0.28395906
223	0xbed0c6d6	-0.407767
224	0x3f656d7b	0.8962018
225	0xbfbc4658	-1.4708967
226	0xbf67f63a	-0.90610087
227	0xbfb2b157	-1.396037
228	0xbf9faf99	-1.2475463
229	0x3df5a6a5	0.119946755
230	0xbfccfdce	-1.6014955
231	0x3f40fe4f	0.75388044
232	0xbe7cbd45	-0.24681576
233	0x3d8cd4f3	0.06876554
234	0x3ea5b1c6	0.32362193
235	0xbeddc165	-0.4331161
236	0x3f842d8f	1.0326403
237	0xbe4874a3	-0.19575743
238	0x3f16bd41	0.5888253
239	0xbe5904bd	-0.21193214
240	0x3e8d743f	0.2762775
241	0x3e866f58	0.26256824
242	0x3e639d5c	0.22227997
243	0xbf7fd602	-0.99935925
244	0x3ed5067d	0.41606513
245	0xbea9351b	-0.3304833
246	0x3f202711	0.6255961
247	0xc009de35	-2.1541874
248	0xbfbb8ae0	-1.4651756
249	0x3eba0e46	0.36339015
250	0x3fee6ccd	1.8626953
251	0x3f55aa0a	0.83462584
252	0xbf2e1723	-0.68004054
253	0xbfd8521b	-1.6900057
254	0x3f3ecca9	0.74531037
255	0xbda05b62	-0.0782993
